…
I1109 13:23:50.610054  2329 caffe.cpp:246] Use CPU.
I1109 13:23:50.611176  2329 net.cpp:313] The NetState phase (1) differed from the phase (0) specified by a rule in layer cifar
I1109 13:23:50.611284  2329 net.cpp:49] Initializing net from parameters: 
name: "CIFAR10_quick"
state {
  phase: TEST
}
layer {
  name: "cifar"
  type: "Data"
  top: "data"
  top: "label"
  include {
    phase: TEST
  }
  transform_param {
    mean_file: "examples/cifar10/mean.binaryproto"
  }
  data_param {
    source: "/tmp/caffe/examples/cifar10/cifar10_test_lmdb"
    batch_size: 100
    backend: LMDB
  }
}
layer {
  name: "conv1"
  type: "Convolution"
  bottom: "data"
  top: "conv1"
  param {
    lr_mult: 1
  }
  param {
    lr_mult: 2
  }
  convolution_param {
    num_output: 32
    pad: 2
    kernel_size: 5
    stride: 1
    weight_filler {
      type: "gaussian"
      std: 0.0001
    }
    bias_filler {
      type: "constant"
    }
  }
}
layer {
  name: "pool1"
  type: "Pooling"
  bottom: "conv1"
  top: "pool1"
  pooling_param {
    pool: MAX
    kernel_size: 3
    stride: 2
  }
}
layer {
  name: "relu1"
  type: "ReLU"
  bottom: "pool1"
  top: "pool1"
}
layer {
  name: "conv2"
  type: "Convolution"
  bottom: "pool1"
  top: "conv2"
  param {
    lr_mult: 1
  }
  param {
    lr_mult: 2
  }
  convolution_param {
    num_output: 32
    pad: 2
    kernel_size: 5
    stride: 1
    weight_filler {
      type: "gaussian"
      std: 0.01
    }
    bias_filler {
      type: "constant"
    }
  }
}
layer {
  name: "relu2"
  type: "ReLU"
  bottom: "conv2"
  top: "conv2"
}
layer {
  name: "pool2"
  type: "Pooling"
  bottom: "conv2"
  top: "pool2"
  pooling_param {
    pool: AVE
    kernel_size: 3
    stride: 2
  }
}
layer {
  name: "conv3"
  type: "Convolution"
  bottom: "pool2"
  top: "conv3"
  param {
    lr_mult: 1
  }
  param {
    lr_mult: 2
  }
  convolution_param {
    num_output: 64
    pad: 2
    kernel_size: 5
    stride: 1
    weight_filler {
      type: "gaussian"
      std: 0.01
    }
    bias_filler {
      type: "constant"
    }
  }
}
layer {
  name: "relu3"
  type: "ReLU"
  bottom: "conv3"
  top: "conv3"
}
layer {
  name: "pool3"
  type: "Pooling"
  bottom: "conv3"
  top: "pool3"
  pooling_param {
    pool: AVE
    kernel_size: 3
    stride: 2
  }
}
layer {
  name: "ip1"
  type: "InnerProduct"
  bottom: "pool3"
  top: "ip1"
  param {
    lr_mult: 1
  }
  param {
    lr_mult: 2
  }
  inner_product_param {
    num_output: 64
    weight_filler {
      type: "gaussian"
      std: 0.1
    }
    bias_filler {
      type: "constant"
    }
  }
}
layer {
  name: "ip2"
  type: "InnerProduct"
  bottom: "ip1"
  top: "ip2"
  param {
    lr_mult: 1
  }
  param {
    lr_mult: 2
  }
  inner_product_param {
    num_output: 10
    weight_filler {
      type: "gaussian"
      std: 0.1
    }
    bias_filler {
      type: "constant"
    }
  }
}
layer {
  name: "accuracy"
  type: "Accuracy"
  bottom: "ip2"
  bottom: "label"
  top: "accuracy"
  include {
    phase: TEST
  }
}
layer {
  name: "loss"
  type: "SoftmaxWithLoss"
  bottom: "ip2"
  bottom: "label"
  top: "loss"
}
I1109 13:23:50.611431  2329 layer_factory.hpp:77] Creating layer cifar
I1109 13:23:50.611861  2329 net.cpp:91] Creating Layer cifar
I1109 13:23:50.611871  2329 net.cpp:399] cifar -> data
I1109 13:23:50.611889  2329 net.cpp:399] cifar -> label
I1109 13:23:50.611901  2329 data_transformer.cpp:25] Loading mean file from: examples/cifar10/mean.binaryproto
I1109 13:23:50.619999  2339 db_lmdb.cpp:35] Opened lmdb /tmp/caffe/examples/cifar10/cifar10_test_lmdb
I1109 13:23:50.620255  2329 data_layer.cpp:41] output data size: 100,3,32,32
I1109 13:23:50.620297  2329 net.cpp:141] Setting up cifar
I1109 13:23:50.620308  2329 net.cpp:148] Top shape: 100 3 32 32 (307200)
I1109 13:23:50.620314  2329 net.cpp:148] Top shape: 100 (100)
I1109 13:23:50.620318  2329 net.cpp:156] Memory required for data: 1229200
I1109 13:23:50.620328  2329 layer_factory.hpp:77] Creating layer label_cifar_1_split
I1109 13:23:50.620339  2329 net.cpp:91] Creating Layer label_cifar_1_split
I1109 13:23:50.620345  2329 net.cpp:425] label_cifar_1_split <- label
I1109 13:23:50.620358  2329 net.cpp:399] label_cifar_1_split -> label_cifar_1_split_0
I1109 13:23:50.620386  2329 net.cpp:399] label_cifar_1_split -> label_cifar_1_split_1
I1109 13:23:50.620404  2329 net.cpp:141] Setting up label_cifar_1_split
I1109 13:23:50.620412  2329 net.cpp:148] Top shape: 100 (100)
I1109 13:23:50.620419  2329 net.cpp:148] Top shape: 100 (100)
I1109 13:23:50.620424  2329 net.cpp:156] Memory required for data: 1230000
I1109 13:23:50.620434  2329 layer_factory.hpp:77] Creating layer conv1
I1109 13:23:50.620452  2329 net.cpp:91] Creating Layer conv1
I1109 13:23:50.620460  2329 net.cpp:425] conv1 <- data
I1109 13:23:50.620472  2329 net.cpp:399] conv1 -> conv1
I1109 13:23:50.620363  2340 blocking_queue.cpp:50] Waiting for data
I1109 13:23:50.620553  2329 net.cpp:141] Setting up conv1
I1109 13:23:50.620769  2329 net.cpp:148] Top shape: 100 32 32 32 (3276800)
I1109 13:23:50.620776  2329 net.cpp:156] Memory required for data: 14337200
I1109 13:23:50.620803  2329 layer_factory.hpp:77] Creating layer pool1
I1109 13:23:50.620817  2329 net.cpp:91] Creating Layer pool1
I1109 13:23:50.620823  2329 net.cpp:425] pool1 <- conv1
I1109 13:23:50.620832  2329 net.cpp:399] pool1 -> pool1
I1109 13:23:50.620857  2329 net.cpp:141] Setting up pool1
I1109 13:23:50.620865  2329 net.cpp:148] Top shape: 100 32 16 16 (819200)
I1109 13:23:50.620870  2329 net.cpp:156] Memory required for data: 17614000
I1109 13:23:50.620874  2329 layer_factory.hpp:77] Creating layer relu1
I1109 13:23:50.620882  2329 net.cpp:91] Creating Layer relu1
I1109 13:23:50.620887  2329 net.cpp:425] relu1 <- pool1
I1109 13:23:50.620910  2329 net.cpp:386] relu1 -> pool1 (in-place)
I1109 13:23:50.620918  2329 net.cpp:141] Setting up relu1
I1109 13:23:50.620923  2329 net.cpp:148] Top shape: 100 32 16 16 (819200)
I1109 13:23:50.620928  2329 net.cpp:156] Memory required for data: 20890800
I1109 13:23:50.620931  2329 layer_factory.hpp:77] Creating layer conv2
I1109 13:23:50.620944  2329 net.cpp:91] Creating Layer conv2
I1109 13:23:50.620949  2329 net.cpp:425] conv2 <- pool1
I1109 13:23:50.620954  2329 net.cpp:399] conv2 -> conv2
I1109 13:23:50.621351  2329 net.cpp:141] Setting up conv2
I1109 13:23:50.621372  2329 net.cpp:148] Top shape: 100 32 16 16 (819200)
I1109 13:23:50.621376  2329 net.cpp:156] Memory required for data: 24167600
I1109 13:23:50.621388  2329 layer_factory.hpp:77] Creating layer relu2
I1109 13:23:50.621397  2329 net.cpp:91] Creating Layer relu2
I1109 13:23:50.621402  2329 net.cpp:425] relu2 <- conv2
I1109 13:23:50.621412  2329 net.cpp:386] relu2 -> conv2 (in-place)
I1109 13:23:50.621418  2329 net.cpp:141] Setting up relu2
I1109 13:23:50.621424  2329 net.cpp:148] Top shape: 100 32 16 16 (819200)
I1109 13:23:50.621428  2329 net.cpp:156] Memory required for data: 27444400
I1109 13:23:50.621433  2329 layer_factory.hpp:77] Creating layer pool2
I1109 13:23:50.621438  2329 net.cpp:91] Creating Layer pool2
I1109 13:23:50.621443  2329 net.cpp:425] pool2 <- conv2
I1109 13:23:50.621449  2329 net.cpp:399] pool2 -> pool2
I1109 13:23:50.621459  2329 net.cpp:141] Setting up pool2
I1109 13:23:50.621464  2329 net.cpp:148] Top shape: 100 32 8 8 (204800)
I1109 13:23:50.621469  2329 net.cpp:156] Memory required for data: 28263600
I1109 13:23:50.621474  2329 layer_factory.hpp:77] Creating layer conv3
I1109 13:23:50.621484  2329 net.cpp:91] Creating Layer conv3
I1109 13:23:50.621489  2329 net.cpp:425] conv3 <- pool2
I1109 13:23:50.621500  2329 net.cpp:399] conv3 -> conv3
I1109 13:23:50.622237  2329 net.cpp:141] Setting up conv3
I1109 13:23:50.622248  2329 net.cpp:148] Top shape: 100 64 8 8 (409600)
I1109 13:23:50.622252  2329 net.cpp:156] Memory required for data: 29902000
I1109 13:23:50.622262  2329 layer_factory.hpp:77] Creating layer relu3
I1109 13:23:50.622267  2329 net.cpp:91] Creating Layer relu3
I1109 13:23:50.622272  2329 net.cpp:425] relu3 <- conv3
I1109 13:23:50.622277  2329 net.cpp:386] relu3 -> conv3 (in-place)
I1109 13:23:50.622284  2329 net.cpp:141] Setting up relu3
I1109 13:23:50.622289  2329 net.cpp:148] Top shape: 100 64 8 8 (409600)
I1109 13:23:50.622293  2329 net.cpp:156] Memory required for data: 31540400
I1109 13:23:50.622334  2329 layer_factory.hpp:77] Creating layer pool3
I1109 13:23:50.622341  2329 net.cpp:91] Creating Layer pool3
I1109 13:23:50.622345  2329 net.cpp:425] pool3 <- conv3
I1109 13:23:50.622352  2329 net.cpp:399] pool3 -> pool3
I1109 13:23:50.622360  2329 net.cpp:141] Setting up pool3
I1109 13:23:50.622366  2329 net.cpp:148] Top shape: 100 64 4 4 (102400)
I1109 13:23:50.622370  2329 net.cpp:156] Memory required for data: 31950000
I1109 13:23:50.622373  2329 layer_factory.hpp:77] Creating layer ip1
I1109 13:23:50.622381  2329 net.cpp:91] Creating Layer ip1
I1109 13:23:50.622386  2329 net.cpp:425] ip1 <- pool3
I1109 13:23:50.622392  2329 net.cpp:399] ip1 -> ip1
I1109 13:23:50.623286  2329 net.cpp:141] Setting up ip1
I1109 13:23:50.623292  2329 net.cpp:148] Top shape: 100 64 (6400)
I1109 13:23:50.623296  2329 net.cpp:156] Memory required for data: 31975600
I1109 13:23:50.623302  2329 layer_factory.hpp:77] Creating layer ip2
I1109 13:23:50.623311  2329 net.cpp:91] Creating Layer ip2
I1109 13:23:50.623316  2329 net.cpp:425] ip2 <- ip1
I1109 13:23:50.623322  2329 net.cpp:399] ip2 -> ip2
I1109 13:23:50.623344  2329 net.cpp:141] Setting up ip2
I1109 13:23:50.623349  2329 net.cpp:148] Top shape: 100 10 (1000)
I1109 13:23:50.623353  2329 net.cpp:156] Memory required for data: 31979600
I1109 13:23:50.623363  2329 layer_factory.hpp:77] Creating layer ip2_ip2_0_split
I1109 13:23:50.623368  2329 net.cpp:91] Creating Layer ip2_ip2_0_split
I1109 13:23:50.623373  2329 net.cpp:425] ip2_ip2_0_split <- ip2
I1109 13:23:50.623379  2329 net.cpp:399] ip2_ip2_0_split -> ip2_ip2_0_split_0
I1109 13:23:50.623386  2329 net.cpp:399] ip2_ip2_0_split -> ip2_ip2_0_split_1
I1109 13:23:50.623394  2329 net.cpp:141] Setting up ip2_ip2_0_split
I1109 13:23:50.623399  2329 net.cpp:148] Top shape: 100 10 (1000)
I1109 13:23:50.623404  2329 net.cpp:148] Top shape: 100 10 (1000)
I1109 13:23:50.623409  2329 net.cpp:156] Memory required for data: 31987600
I1109 13:23:50.623412  2329 layer_factory.hpp:77] Creating layer accuracy
I1109 13:23:50.623420  2329 net.cpp:91] Creating Layer accuracy
I1109 13:23:50.623425  2329 net.cpp:425] accuracy <- ip2_ip2_0_split_0
I1109 13:23:50.623430  2329 net.cpp:425] accuracy <- label_cifar_1_split_0
I1109 13:23:50.623435  2329 net.cpp:399] accuracy -> accuracy
…
